gcn.pt (torch, 4119 bytes, 4 tensors)

conv1.weight f4 [8, 16]
000000 f8 e1 65 3f 70 08 d8 bd d2 1c 00 00 10 1e 47 40
       0.89797926 -0.10548484 1.0339e-41 3.1112099
000010 4a 5c af 17 ff 32 cd 3e 8a 28 01 80 8d 98 00 80
       1.1332407e-24 0.4007797 -1.06378e-40 -5.4725e-41
000020 ef 7b 00 80 55 63 d8 3e e2 44 8e bb 82 2b 00 00
       -4.4459e-41 0.42263284 -0.0043417076 1.5608e-41
000030 49 0f 0e 40 63 ff ea bf cc 1a 32 3f cd 46 1f 3f
       2.219683 -1.8359188 0.6957214 0.6221741
000040 d9 ec 84 bf 7f 0c a8 bf a6 9b 00 80 96 55 cd bf
       -1.038478 -1.3128814 -5.5836e-41 -1.6041744
000050 21 ac 8d 19 95 71 61 bf 49 09 00 80 5a 4b 00 80
       1.464858e-23 -0.8806394 -3.331e-42 -2.7031e-41
000060 56 65 00 00 60 94 a2 be ad 45 28 bf d3 27 01 00
       3.6352e-41 -0.31753826 -0.65731317 1.06122e-40
000070 5e 1d 32 3e 9f 39 4d 3f 09 cd f8 3f 56 7b ca be
       0.17394015 0.8016605 1.9437572 -0.39547223
000080 2e ed 70 3f 27 3e 26 c0 52 53 00 00 90 ed 59 be
       0.9411191 -2.5975435 2.989e-41 -0.21282029
000090 4d d5 e1 99 6c 01 36 40 02 b6 00 80 52 8a 00 00
       -2.3350606e-23 2.8438368 -6.5292e-41 4.962e-41
0000a0 15 27 01 00 f4 92 28 be 17 be 35 bd 1d 1d 00 80
       1.05855e-40 -0.16462308 -0.044370737 -1.0444e-41
0000b0 ab 0f 28 bf f9 64 ae 3f 31 a7 d6 3e 51 8b 28 c0
       -0.6564891 1.3624564 0.41924432 -2.6335032
0000c0 16 bf a2 be 36 e1 50 3f 94 5a 00 00 8d d3 62 3e
       -0.31786412 0.81593645 3.2493e-41 0.22151013
0000d0 a6 54 53 9a 06 13 1b 3f a5 86 00 80 75 54 00 80
       -4.3702156e-23 0.605759 -4.8301e-41 -3.0297e-41
0000e0 09 76 01 00 db 6a 75 3f 01 08 78 3e 61 43 00 80
       1.34179e-40 0.95866174 0.24221803 -2.4171e-41
0000f0 a2 e7 47 bf 67 b8 02 40 f0 db 58 bf c7 39 57 bf
       -0.7808782 2.042505 -0.847106 -0.84072536
000100 96 c1 f7 3e ff 0b 80 be 82 25 01 00 e2 43 fc 3f
       0.48389882 -0.25009152 1.05291e-40 1.9708216
000110 58 56 db 99 ed 4f 01 c0 32 94 00 00 56 93 01 00
       -2.2678943e-23 -2.0205033 5.3162e-41 1.4469e-40
000120 a8 c5 06 80 c5 01 ad 3f a4 e9 b6 bf da 26 01 00
       -6.21919e-40 1.3516165 -1.4290051 1.05773e-40
000130 c8 9f ef 3c fa 71 72 bf 91 62 ab be 0f 89 a3 3f
       0.029250994 -0.94705164 -0.33473638 1.2776202
000140 5e 0b 50 c0 9f 60 02 c0 33 24 00 80 16 65 e5 3c
       -3.2506938 -2.0371473 -1.2986e-41 0.028002303
000150 83 b0 22 99 95 bd c5 3d bb ad 00 00 22 9b 00 00
       -8.41085e-24 0.096553005 6.2323e-41 5.5651e-41
000160 51 fb 00 80 3c c0 93 3f 28 43 4e bf 7c 38 00 00
       -9.0155e-41 1.154304 -0.8057122 2.0263e-41
000170 5d 3d 53 bf 61 77 de 3f cf eb da 3e 3a c1 8e bf
       -0.8251551 1.7380182 0.42758033 -1.1152718
000180 23 c8 29 40 af 3d ce bf 47 d7 00 00 34 81 b8 bf
       2.6528404 -1.6112574 7.7227e-41 -1.441443
000190 60 48 87 9a 53 5d b6 be a0 53 00 00 b1 39 00 80
       -5.595162e-23 -0.35618076 2.9999e-41 -2.0696e-41
0001a0 b2 12 01 00 fa 19 10 be e0 79 1c bf 3c 85 00 80
       9.8542e-41 -0.1407241 -0.61123466 -4.7795e-41
0001b0 f9 eb bf be f3 16 e1 bf 29 7b 5e 3f d6 22 98 be
       -0.3748472 -1.7585129 0.8690668 -0.29714078
0001c0 b9 1c 8b bf bd 8b 42 bf d8 16 01 00 83 f2 12 bf
       -1.086814 -0.75994474 1.0003e-40 -0.57401294
0001d0 0c 06 86 1d e3 ed a1 3f f0 f9 00 00 50 7b 00 00
       3.5475757e-21 1.2650722 8.966e-41 4.4236e-41
0001e0 99 8f 00 80 48 44 62 bf 5c 2a e8 bf 23 65 01 80
       -5.1513e-41 -0.8838544 -1.8137927 -1.28117e-40
0001f0 7a 94 ae bf 26 28 06 40 17 ce 35 bf 59 b8 a1 3f
       -1.3639061 2.0962005 -0.71017593 1.2634383

conv1.bias f4 [16]
000000 55 c1 41 bd e4 be 00 be fd bc 05 bc f3 4e c7 bd
       -0.047303516 -0.12572819 -0.008162734 -0.09731855
000010 40 51 23 be b1 99 47 bc 80 59 39 b8 2b 29 12 bc
       -0.15948963 -0.012182639 -4.419079e-05 -0.008920948
000020 17 72 f8 9c 0c ad 81 3c 15 da 7b 3c a3 31 77 b3
       -1.6440755e-21 0.015829585 0.015371819 -5.7554313e-08
000030 d6 d5 af 3c 8e 28 89 bd 3e cd e1 bc 7f e8 ba bd
       0.02146427 -0.06697188 -0.027563687 -0.09126376

conv2.weight f4 [16, 27]
000000 b5 46 8a c1 c5 65 50 bf ec aa c0 c0 ef 76 04 c1
       -17.284525 -0.8140529 -6.0208645 -8.2790365
000010 9e 4d 6f c1 96 a3 c3 c0 7b 7b c6 c0 0d 64 3b c1
       -14.9564495 -6.113719 -6.2025733 -11.711926
000020 ae 1e c5 c0 fd 31 b8 c0 7f 83 0b 40 c3 fb d3 bf
       -6.159995 -5.756102 2.179901 -1.6561207
000030 bc d2 17 40 49 f1 be c0 a5 40 cb c0 f4 7d 5a 40
       2.3722372 -5.9669538 -6.351641 3.4139376
000040 83 56 d6 c0 09 83 c3 c0 9a ec ed 40 73 56 a8 c1
       -6.6980605 -6.1097455 7.435132 -21.042212
000050 69 c0 d2 c0 0b 7d 42 c1 3b 44 df 40 e2 80 2c 40
       -6.5859876 -12.155528 6.977079 2.6953664
000060 22 81 16 c1 6d 92 96 40 1a 81 76 40 cd bb 62 40
       -9.406527 4.7053742 3.8516297 3.5427125
000070 90 64 ac c0 36 f7 03 c1 41 5a d3 3f 0a 46 52 40
       -5.3872757 -8.247854 1.6511918 3.2855248
000080 dd 56 09 c1 c7 68 12 c1 45 3b a0 40 75 b8 14 c1
       -8.583707 -9.15058 5.007235 -9.295033
000090 d0 60 0c c1 18 67 1e c0 4c 0c 65 40 d6 74 56 c1
       -8.773636 -2.4750423 3.5788755 -13.403524
0000a0 76 96 09 c1 7a f5 14 c1 e0 cc aa c1 ce cd 12 c1
       -8.599234 -9.309931 -21.350037 -9.175245
0000b0 65 9b 0c c1 df 4d d1 c1 b5 5b a2 40 32 e7 0b c1
       -8.787938 -26.163023 5.0736947 -8.743944
0000c0 f9 83 37 40 e0 b5 bd c1 96 64 e7 3f 0b cc c0 3e
       2.86743 -23.713806 1.8077571 0.37655672
0000d0 84 f3 76 c0 d6 bd b6 c1 bc de fa be 5b 3d c0 bd
       -3.858613 -22.842693 -0.48998058 -0.093867026
0000e0 3d 28 08 be c8 dd 6e bd df 61 1f be 7e c3 c0 3d
       -0.132966 -0.058316976 -0.15564679 0.09412287
0000f0 93 6a fa 3d 2c f1 82 be ce 59 d3 be ed 47 1a be
       0.12227359 -0.25574625 -0.41279453 -0.150665
000100 08 64 fa be 9b 83 95 3c 73 fe 57 3e 80 66 38 be
       -0.48904443 0.018251231 0.21093158 -0.1800785
000110 36 7f 83 be b5 23 c5 be 1f 55 5e 3d 53 ca 1d 3c
       -0.25682992 -0.38503805 0.054280397 0.009630757
000120 9c 5f ba bd fb 2e 07 3e 79 13 03 3e 1e 41 17 bf
       -0.09100267 0.13201515 0.12800397 -0.59083736
000130 04 34 04 bf d4 87 3b be 54 2d 88 3d 03 06 75 bf
       -0.5164187 -0.18313533 0.06649271 -0.957123
000140 84 4d 42 3e 5e d7 99 40 11 40 2c c1 7f 29 f9 c0
       0.18974882 4.80754 -10.765641 -7.7863154
000150 c8 9e 32 40 f7 cb af 3f ba 08 f7 c0 71 5f 01 c1
       2.7909412 1.373412 -7.7198153 -8.085801
000160 3a 35 34 c0 d3 1f 06 c1 5a 24 02 c1 1c 77 c6 40
       -2.8157487 -8.38277 -8.133875 6.2020397
000170 e8 82 07 40 6c 66 65 c1 8a 4b f2 c0 4c 39 08 c1
       2.117365 -14.337505 -7.571721 -8.5139885
000180 9a 69 83 c1 79 7b 04 c1 b1 d3 06 c1 55 b0 49 c1
       -16.426563 -8.280145 -8.426682 -12.60555
000190 c0 59 b4 3f 4b 30 07 c1 fc fb 08 40 c1 6d b8 c1
       1.408989 -8.44929 2.14038 -23.05359
0001a0 d3 04 68 40 81 e1 aa 40 ef 13 dd c1 e2 c3 d0 c1
       3.6252944 5.3400273 -27.634733 -26.095646
0001b0 7b c6 87 bf 2a c5 4f be d8 6f a4 bf aa 85 4c bf
       -1.0607446 -0.20290056 -1.2846632 -0.79891455
0001c0 15 f1 8a be 80 3b 76 bf 99 a1 52 bf 33 fd 17 bf
       -0.27137056 -0.9618454 -0.8227783 -0.59370726
0001d0 77 ac 8a bf 62 3e 44 bf ee e2 0e 3e 4d de 6c bf
       -1.0833882 -0.7665769 0.13953754 -0.92526704
0001e0 26 74 93 bd 06 87 8a bf 2c 39 49 bf c4 d4 7d be
       -0.07199888 -1.0822456 -0.7860286 -0.24788195
0001f0 07 b0 51 bf 52 b4 6c bf 44 51 52 bf d8 e4 a5 be
       -0.8190922 -0.92462647 -0.8215525 -0.32401156
000200 89 75 22 bf 56 b0 6c be 99 99 74 3d 13 c0 a3 be
       -0.63460594 -0.23114142 0.059716795 -0.31982478
000210 70 a9 4a 3e 8d 33 cc be 3e ea 89 3e 6e ae a3 bd
       0.19791198 -0.3988308 0.26936525 -0.07992254
000220 7b 1d 38 40 5b 33 09 c1 e3 41 5a c1 7d 3a 56 3e
       2.8767993 -8.575038 -13.641086 0.20920749
000230 47 18 11 c1 04 e8 17 c1 56 37 35 c1 d3 cb 10 c1
       -9.068427 -9.494144 -11.32601 -9.049762
000240 2e e2 12 c1 a9 8a 82 c1 84 73 c3 c0 72 72 79 40
       -9.18022 -16.317705 -6.107851 3.8976102
000250 44 33 0e c1 c2 99 18 c1 bb fd 56 40 00 05 18 c1
       -8.887516 -9.537539 3.3592365 -9.501221
000260 2f e8 17 c1 e7 28 0e 40 cd 6f 5e c0 f5 e9 12 c1
       -9.494185 2.2212465 -3.4755738 -9.182118
000270 28 a3 bd bf cc ca 71 40 37 ff 07 c0 60 c6 15 c1
       -1.4815416 3.7780027 -2.124952 -9.360931
000280 4c 05 7d 40 8d be 7b 40 46 c9 12 be a2 06 0a c0
       3.9534483 3.9335053 -0.14334592 -2.1566548
000290 eb 50 73 bf 88 79 ba bc df bc 96 be f5 84 66 bf
       -0.95045346 -0.022763029 -0.29440972 -0.90046626
0002a0 f0 5b b5 bf 8a e1 31 bf d3 1c 89 bf 18 ca 88 bf
       -1.4168682 -0.6948477 -1.0711921 -1.0686674
0002b0 4b f1 d2 be 75 89 cf bf 03 16 84 bf 10 8b 87 bf
       -0.41199717 -1.6213824 -1.0319217 -1.0589314
0002c0 18 d4 a4 bf bc c5 36 bf 58 ed 9e bf a0 9b a5 bf
       -1.2877226 -0.7139547 -1.2416182 -1.2938118
0002d0 e7 6c af bd ff dc 49 bf 15 41 a2 bf 75 40 f0 be
       -0.08565693 -0.7885284 -1.2676111 -0.46924177
0002e0 f7 48 f5 bd ec 7a cb be 74 08 e3 be 20 aa 29 bf
       -0.119768076 -0.3974222 -0.44342387 -0.66275215
0002f0 f0 85 b9 bf 52 4c bf be 2f fb a8 bf af f2 95 be
       -1.4494 -0.37362915 -1.3201655 -0.29286715
000300 5f b8 26 bf 74 cc 2f bf 96 06 d8 be 78 4f ef bd
       -0.6512508 -0.68671346 -0.42192525 -0.11685079
000310 d9 9a 90 bf 63 ce c5 be 2a 6f 0d bf 51 7b f9 be
       -1.1297256 -0.38634023 -0.5524775 -0.48726895
000320 38 c4 2f c0 7d c0 25 bf e0 9f 1f bf 76 da 13 bf
       -2.7463512 -0.6474684 -0.62353325 -0.5775522
000330 af df 19 bf d7 cb 23 bf 84 84 54 be 3d 8e 02 bf
       -0.6010694 -0.6398291 -0.20753676 -0.5099829
000340 43 e4 1b bf cc 5a 28 bf 7f af 6c be 4d 6a fc be
       -0.60895175 -0.65763545 -0.23113821 -0.4929985
000350 92 c7 4d bf 41 eb e6 3b 74 20 98 bc f1 10 a1 bf
       -0.80382645 0.0070470874 -0.018570162 -1.2583295
000360 7c b1 b0 3d 25 96 86 bf e3 9a 00 3e 99 4e e2 3d
       0.086276025 -1.051457 0.12559085 0.110501476
000370 37 b2 09 bf a8 4f 4d be ae 82 32 3e 91 dd d3 be
       -0.5378756 -0.20049918 0.17432663 -0.4137998
000380 10 4f f5 be 74 a8 bf be 42 d8 f6 be a8 ba 4f bf
       -0.47911882 -0.37433207 -0.48211867 -0.8114419
000390 83 a3 19 bf ee 75 10 3e 7f 09 a0 3d ca 3d 23 bf
       -0.60015124 0.14107487 0.07814311 -0.6376616
0003a0 f4 ee ba 3c 27 5a 0b 3e d9 49 08 3e 7f 85 6f be
       0.02281902 0.13608609 0.1330942 -0.23390768
0003b0 2b 36 d4 be 4f 3f f1 be e4 8b e1 bd 9e 35 8e bd
       -0.41447577 -0.47118613 -0.1101301 -0.069438204
0003c0 56 2a da be 08 21 5b bd b8 f9 b0 bf db 9b c4 3d
       -0.42610425 -0.053498298 -1.3826208 0.096000396
0003d0 6a 7c ad c0 5a 37 08 c1 ad 9b 37 40 d5 22 2b 3f
       -5.4214373 -8.513514 2.8688767 0.66850024
0003e0 1d c9 08 c1 de c7 09 c1 b9 33 58 c0 3f 31 10 c1
       -8.5491 -8.611296 -3.378157 -9.012023
0003f0 0b 89 04 c1 f1 9e 9a 3f c0 dd c6 c0 f2 1a 47 c1
       -8.283458 1.2079755 -6.214569 -12.444078

conv2.bias f4 [27]
000000 d5 a4 d7 be 3b 10 9f bf 35 05 8d c1 58 b3 07 3f
       -0.42117944 -1.2426828 -17.627542 0.5300803
000010 47 1d 92 be 9b f5 8c c1 31 07 8d c1 f6 e3 50 bd
       -0.28537962 -17.619925 -17.628511 -0.05099865
000020 bc de 8c c1 3a dd 8c c1 eb 1c 98 be 77 cc 27 bf
       -17.608757 -17.60802 -0.29709563 -0.65546364
000030 f1 8c 60 bd 57 07 8d c1 1f e0 8c c1 4b 4f 52 be
       -0.054821912 -17.628584 -17.609434 -0.2053806
000040 7d fb 8c c1 49 dc 8c c1 f5 7d 0b 3e 37 1f f8 3e
       -17.622797 -17.607561 0.13622268 0.48461315
000050 c4 fb 8c c1 96 83 2a 3d d3 9a 24 3e 58 27 0c 3f
       -17.622932 0.041629396 0.16074686 0.54747534
000060 21 a6 5d 3f dd f6 40 be 1e af a4 bc
       0.8658162 -0.18844171 -0.020103034
